NNSmith/all_outputs/output3995/model.pth (torch, 1612 bytes, 2 tensors)

m3.weight f4 [25, 1, 1]
5.539013 4.0115566 6.7238584 3.9198709 3.0915794 5.4442472 4.321698 4.809789
4.803459 3.1602604 5.099083 6.491517 6.566988 6.9530687 6.187587 5.8282547
6.0312586 4.3498917 4.5607405 3.3039098 3.203514 3.8479826 4.222021 6.40796
3.740436
00000000: 983f b140 ac5e 8040 d929 d740 2adf 7a40
00000010: 70dc 4540 4637 ae40 5a4b 8a40 cbe9 9940
00000020: f0b5 9940 b541 4a40 b02b a340 82ba cf40
00000030: c424 d240 8a7f de40 b600 c640 1081 ba40
00000040: 1200 c140 5032 8b40 96f1 9140 4273 5340
00000050: 6006 4d40 5945 7640 cc1a 8740 020e cd40
00000060: 4e63 6f40

m3.bias f4 [25]
6.7604733 5.5614204 3.3472056 3.4573402 3.354209 4.1285715 3.8184507 3.9915679
5.894621 6.6684017 3.052136 3.4711022 4.111862 6.426697 3.5343435 5.132121
5.955696 5.8053455 6.3492994 5.2383213 5.2628303 5.6909237 3.8691673 3.2651083
4.041667
00000000: cc55 d840 28f7 b140 9e38 5640 1045 5d40
00000010: 5cab 5640 421d 8440 7f61 7440 d975 7f40
00000020: bca0 bc40 8c63 d540 3256 4340 8a26 5e40
00000030: 6094 8340 80a7 cd40 af32 6240 563a a440
00000040: 1095 be40 64c5 b940 762d cb40 54a0 a740
00000050: 1b69 a840 0c1c b640 70a0 7740 89f7 5040
00000060: 5655 8140
