NNSmith/all_outputs/output5165/model.pth (torch, 1548 bytes, 2 tensors)

m5.weight f4 [16, 1, 1, 1]
0	0x408a6046	4.324252
1	0x407d5b1b	3.9586856
2	0x4088de87	4.277164
3	0x40ab6ed9	5.357281
4	0x40b3dac0	5.620453
5	0x4048a9c2	3.1353612
6	0x40d2337a	6.5687838
7	0x40aebec4	5.460787
8	0x40b07f00	5.515503
9	0x408ceb68	4.403736
10	0x40b57dbb	5.671598
11	0x409d7b28	4.9212837
12	0x40966d9c	4.70088
13	0x407ae935	3.9204838
14	0x40d910ea	6.7833147
15	0x4059f090	3.4053078

m5.bias f4 [16]
0	0x40ba10f1	5.814568
1	0x40aa2a9c	5.3177013
2	0x406394eb	3.5559642
3	0x40886ba4	4.2631397
4	0x40d156e7	6.541858
5	0x4099e2ab	4.8089194
6	0x4094480e	4.6337957
7	0x40aa827c	5.3284283
8	0x40b6b7c8	5.709934
9	0x40beac13	5.958505
10	0x40cb3464	6.3501453
11	0x408ba3ca	4.363744
12	0x405b519e	3.4268565
13	0x404a654a	3.1624322
14	0x409ccff4	4.900385
15	0x40a4b0ea	5.146596
