NNSmith/all_outputs/output3155/model.pth (torch, 1932 bytes, 2 tensors)

m1.weight f4 [24, 1, 2, 2]
4.691362 5.764284 4.169825 3.1433325 6.3680544 6.1541605 6.204729 3.59468
6.7643323 6.2148013 4.9275007 3.8026173 3.3532662 5.3147984 5.986215 5.637744
3.588619 3.566985 4.0246 3.2317276 5.7913156 4.509173 3.4600399 6.572875
6.6161613 5.9933987 4.3615456 5.159847 3.6767623 4.8678026 5.6773973 4.592864
5.7617903 4.0103836 6.6914234 6.818546 4.03805 5.106564 4.9505596 4.3551655
5.637583 5.492717 3.5077918 5.1086617 5.92523 4.2434387 6.085539 5.934399
4.8188133 4.6668196 5.590686 5.329163 6.6733685 3.2811193 4.404983 4.00366
6.428534 3.355148 5.23759 3.3423421 6.713792 4.7472634 4.762011 6.6423054
4.2935534 4.3580613 4.655303 6.067686 3.7204204 4.41552 5.511607 3.3848832
5.115491 4.7775893 6.7797327 6.291293 6.0377707 5.6647058 6.2433424 3.3481386
5.2111444 6.932147 4.8682613 5.8170857 3.820281 6.309584 3.3160822 4.777692
3.461098 6.436782 3.2121046 5.8970375 3.4665327 4.426985 3.5459828 4.7792964
00000000: a31f 9640 0475 b840 356f 8540 5c2c 4940
00000010: 1ac7 cb40 e2ee c440 248d c640 3d0f 6640
00000020: 6975 d840 a7df c640 16ae 9d40 155e 7340
00000030: ea9b 5640 d412 aa40 138f bf40 6668 b440
00000040: efab 6540 7b49 6440 86c9 8040 a0d4 4e40
00000050: 7552 b940 254b 9040 4b71 5d40 fe54 d240
00000060: 98b7 d340 ecc9 bf40 c891 8b40 771d a540
00000070: 1350 6b40 0ac5 9b40 3dad b540 bef8 9240
00000080: 9660 b840 1055 8040 2420 d640 8731 da40
00000090: b537 8140 f968 a340 fc6a 9e40 845d 8b40
000000a0: 1467 b440 56c4 af40 a97f 6040 287a a340
000000b0: 7c9b bd40 40ca 8740 bcbc c240 99e6 bd40
000000c0: b833 9a40 9656 9540 e6e6 b240 8188 aa40
000000d0: 3c8c d540 dcfd 5140 9ff5 8c40 fc1d 8040
000000e0: 8db6 cd40 bfba 5640 569a a740 efe8 5540
000000f0: 62d7 d640 95e9 9740 6562 9840 c48d d440
00000100: ca64 8940 3d75 8b40 3ef8 9440 7c2a c240
00000110: 5e1b 6e40 f14b 8d40 165f b040 eda1 5840
00000120: 1ab2 a340 03e2 9840 92f3 d840 4652 c940
00000130: 6b35 c140 4545 b540 76c9 c740 e747 5640
00000140: b2c1 a640 26d4 dd40 ccc8 9b40 9125 ba40
00000150: 7c7f 7440 1de8 c940 b13a 5440 dae2 9840
00000160: a182 5d40 1efa cd40 1f93 4d40 88b4 bc40
00000170: acdb 5d40 dca9 8d40 62f1 6240 ffef 9840

m1.bias f4 [24]
4.3297434 6.9129252 3.8592033 6.43731 4.7910976 3.4473457 4.081259 5.0150766
5.1374454 5.1300993 3.148146 3.907461 4.9964 6.1886 4.8155737 5.589613
5.9660883 5.250309 6.028112 5.8487835 4.9842057 6.950769 5.8050013 6.240538
00000000: 428d 8a40 af36 dd40 30fd 7640 72fe cd40
00000010: ac50 9940 50a1 5c40 ac99 8240 827b a040
00000020: f465 a440 c629 a440 397b 4940 d713 7a40
00000030: 82e2 9f40 0309 c640 2e19 9a40 1cde b240
00000040: 32ea be40 8802 a840 4be6 c040 3c29 bb40
00000050: 9d7e 9f40 b36c de40 92c2 b940 7db2 c740
