NNSmith/all_outputs/output1481/model.pth (torch, 1984 bytes, 3 tensors)

v3_0 f4 [1, 10]
00000000: d405 d740 9c07 d540 367f 8a40 d5f2 8440
00000010: da75 8040 8d24 cd40 5fb4 6440 faea aa40
00000020: 2834 9c40 fd24 5140
6.7194614 6.657179 4.3280287 4.1546426 4.014386 6.410712 3.573509 5.3411837
4.8813667 3.2678826

v2_0 f4 [1, 10]
00000000: 3cd9 6840 e584 ba40 4fd6 7540 5a1c 8440
00000010: 0714 ad40 11c8 b040 3679 8940 545a 7040
00000020: 78bc 8f40 2092 db40
3.638259 5.8287225 3.8412054 4.128461 5.4086947 5.524422 4.2960463 3.7555132
4.4917564 6.8615875

m7.weight f4 [1, 10]
00000000: 48f7 ac40 7db5 9640 9ef2 c040 bbef cf40
00000010: 4dab 4c40 305b 9940 eed2 ae40 b3e6 5b40
00000020: 3c57 b640 ca1d a040
5.4051857 4.7096543 6.0296164 6.498014 3.1979554 4.7923813 5.4632483 3.4359558
5.6981487 5.0036364
